----------------------------------------------------------------
        Layer (type)               Output Shape         Param #
================================================================
   ConvTranspose2d-1           [-1, 1024, 4, 4]       1,638,400
       BatchNorm2d-2           [-1, 1024, 4, 4]           2,048
              ReLU-3           [-1, 1024, 4, 4]               0
   ConvTranspose2d-4            [-1, 512, 8, 8]       8,388,608
       BatchNorm2d-5            [-1, 512, 8, 8]           1,024
              ReLU-6            [-1, 512, 8, 8]               0
   ConvTranspose2d-7          [-1, 256, 16, 16]       2,097,152
       BatchNorm2d-8          [-1, 256, 16, 16]             512
              ReLU-9          [-1, 256, 16, 16]               0
  ConvTranspose2d-10          [-1, 128, 32, 32]         524,288
      BatchNorm2d-11          [-1, 128, 32, 32]             256
             ReLU-12          [-1, 128, 32, 32]               0
  ConvTranspose2d-13           [-1, 64, 64, 64]         131,072
      BatchNorm2d-14           [-1, 64, 64, 64]             128
             ReLU-15           [-1, 64, 64, 64]               0
  ConvTranspose2d-16          [-1, 3, 128, 128]           3,072
             Tanh-17          [-1, 3, 128, 128]               0
================================================================
Total params: 12,786,560
Trainable params: 12,786,560
Non-trainable params: 0
----------------------------------------------------------------
Input size (MB): 0.00
Forward/backward pass size (MB): 12.38
Params size (MB): 48.78
Estimated Total Size (MB): 61.15
----------------------------------------------------------------
----------------------------------------------------------------
        Layer (type)               Output Shape         Param #
================================================================
            Conv2d-1           [-1, 64, 64, 64]           3,072
         LeakyReLU-2           [-1, 64, 64, 64]               0
            Conv2d-3          [-1, 128, 32, 32]         131,072
       BatchNorm2d-4          [-1, 128, 32, 32]             256
         LeakyReLU-5          [-1, 128, 32, 32]               0
            Conv2d-6          [-1, 256, 16, 16]         524,288
       BatchNorm2d-7          [-1, 256, 16, 16]             512
         LeakyReLU-8          [-1, 256, 16, 16]               0
            Conv2d-9            [-1, 512, 8, 8]       2,097,152
      BatchNorm2d-10            [-1, 512, 8, 8]           1,024
        LeakyReLU-11            [-1, 512, 8, 8]               0
           Conv2d-12            [-1, 512, 4, 4]       4,194,304
      BatchNorm2d-13            [-1, 512, 4, 4]           1,024
        LeakyReLU-14            [-1, 512, 4, 4]               0
           Conv2d-15              [-1, 1, 1, 1]           8,192
          Sigmoid-16              [-1, 1, 1, 1]               0
================================================================
Total params: 6,960,896
Trainable params: 6,960,896
Non-trainable params: 0
----------------------------------------------------------------
Input size (MB): 0.19
Forward/backward pass size (MB): 9.44
Params size (MB): 26.55
Estimated Total Size (MB): 36.18
----------------------------------------------------------------
Clipping input data to the valid range for imshow with RGB data ([0..1] for floats or [0..255] for integers).
…
